handwriting_rnn_model.pth (torch, 880549 bytes, 10 tensors)

lstm.weight_ih_l0 f4 [512, 28]
00000000: e5ad bb3d 278b b53c 1929 cabc ad49 9fbd
00000010: af07 323d 49e5 00bd f5a9 4bbe c602 46be
00000020: c257 a6bd 6f48 6abe 329b 7dbe b49c 093d
00000030: 8eb0 b43c 5bd6 2f3e 0e2d 3c3e 4d2a 203e
00000040: f48c aa3d a102 f6bb 88fd bcbd d900 2a3c
00000050: 4ef6 7dbd d701 94bd f2f1 f63d 5009 753c
00000060: aaf7 39bd 1b21 1f3e 07b9 c43d 1cc3 9fbc
00000070: 157f 313d cdec a3bd 118f 003c b039 61bd
00000080: 6951 95bd f9c2 8a3d a3a0 5b3d 3452 fa3c
00000090: 7788 5abd 85ce 12be 5030 e0bd 9919 18be
000000a0: cfc8 a43d d2a4 db3d 428b f13d 8a6e b93d
000000b0: f2f4 94bc ba07 163d e31c f43d c00a f83b
000000c0: 331f cbbb 8dcd 8ebd aa6d 943d 1ed7 db3d
000000d0: 022c 763d 0c5f 583d e631 6bbd 2358 80be
000000e0: 04bf 8fbd ca2d 3b3d a3a2 4abe 4311 56be
000000f0: 3bbd c0bd f30d a0bd e9a1 5dbd 172f b3bc
00000100: 5f20 853d 38ec b1bd 182f c3bd bff3 1d3c
00000110: d770 463d 8afa 243d c1b9 06bd 3068 a4bd
00000120: c4fd 4a3d dbd0 f9bd e506 d1bd 322d 84bd
00000130: 0e36 273d 015f 61bc 3f60 88bd 1948 843d
00000140: d4e9 c0bc b24c 2f3d 1ba4 483e 74df a2bc
00000150: 51a7 12bd ef35 343e 29e2 513e a034 173e
00000160: be1e 623d 58ec a13d 55e6 883d 633c f1bc
00000170: e9db 07be 1cd8 a8bb 9bcd 1abd 9ca9 f3bc
00000180: 91a3 5abd 774c 523d fb01 8ebd 8db0 a3bd
00000190: 2531 2ebe 1527 8abd d025 30be 2850 09be
000001a0: 30e8 b1bd 1031 353d 607f d8bc 8e06 633d
000001b0: 628b 803b f154 c63d 4da1 823d 2c47 e23d
000001c0: 84c5 923d d3de 03be fbbc 68bd 57ac 993d
000001d0: 4715 2fba 94cc 273e df7f d03d ae05 373e
000001e0: cb40 4f3e 4f8f 073e 6a7d 0a3c 47a4 e43c
000001f0: 4169 c03d f665 3d3e 4d8a 6f3e 433a b23e
00000200: decb 7e3e 8bfe be3d eb5c f8bc 1821 093d
00000210: 4cdb 85bd d777 c2bd 0dd1 93bd 6d0e 5bbc
00000220: 1eb4 58bc 685f 263c e181 1ebe 1c8e 15be
00000230: 2d75 b1bd c5d6 e93d a455 ca3d 7bf3 273c
00000240: ebca b7bb bce7 01bd dab7 0bbd 2b1d 41bd
00000250: ccb3 b8bd 34e8 8ebc b215 0abe 3d4c 88bd
00000260: 2543 87bd 8e6c 453d e6ce 643c dfb4 b33a
00000270: f4ce 92bc 1e7c 91bc 01f9 303d b7c9 d43d
00000280: 1a74 99bb a4be 58bd d509 e2bd a50e 643c
00000290: f61c 393e 5dea 763e ab8c 083e 4b5b 43be
000002a0: deee 44bc 88ad 093e fba8 963d 4a4f e13d
000002b0: bf7b 25bc 0ef4 2cbd f778 35be 4acb 3dbe
000002c0: c8ad a1bd 6f65 823d 7f76 1bbc f508 713d
000002d0: 6cbf 4b3d ffa0 3d3e 7663 f93d 92fe 9f3d
000002e0: 2dfd a33d 5e95 92bc c058 913d 257a 033e
000002f0: 72d7 b33d 15a5 5cbd a70b 83bd 5b6b 8dbd
00000300: 4946 2e3e 3fde 303e 2a33 f83d 9b89 0dbe
00000310: df58 8cbd 56a8 803d faac 14bd 5684 9ebd
00000320: 11bd 12be 475d b2bd 0471 28be 2be9 d93c
00000330: 9b9d eb3d 34eb 343e 3931 033e ea0d 5f3e
00000340: eebe 753e 141f 343b 9342 81bd ecc7 3b3d
00000350: 5839 14be 0785 a5bd ada2 a83c 2d9b b4bd
00000360: fbe3 4bbd eb3b b3bd 1cff 093e 5b10 2d3c
00000370: 8194 d03d 99a8 713d 19fe ba3d be48 943c
00000380: 76df 413d 0d0c 8c3d c1f1 0abd 9b8e c53d
00000390: 3be9 b73d fbb1 863e a7c7 a13d 7dc1 e93d
000003a0: 6c52 943d 523f e93d cb24 8bbd d369 33be
000003b0: 928b 64be 45c5 3bbd 357c 383e ba95 3a3e
000003c0: d07c 533e 9dbb 523e ae18 093e 3447 143e
000003d0: 2939 40bd f4d0 9eba 87e0 b9bd dc20 36bd
000003e0: f759 613d 1be7 643e 285d 543e 964c 963d
000003f0: 7cb3 c8bd 5722 e33c a27b 7a3e 52dc b63d
0.09164027 0.02216108 -0.0246778 -0.077777244 0.04346436 -0.031468663 -0.19889052 -0.19336995
-0.08122207 -0.22879194 -0.24766234 0.03359671 0.022056844 0.17171614 0.18376562 0.15641136
0.08327666 -0.0075076376 -0.09228045 0.010376179 -0.062002473 -0.072269134 0.12057866 0.014955834
-0.045402206 0.15539972 0.09605604 -0.019502215 0.043334085 -0.080041505 0.00784661 -0.054986656
-0.072909184 0.06775469 0.053619992 0.030556776 -0.0533528 -0.14336593 -0.10946715 -0.14853515
0.08046114 0.10724796 0.117941394 0.09054287 -0.018183205 0.036628462 0.11919572 0.007569641
-0.0061987876 -0.069727995 0.07247479 0.1073439 0.060100563 0.05282502 -0.057420634 -0.25067243
-0.07018855 0.045697965 -0.19788603 -0.20905022 -0.09411093 -0.078151606 -0.054109488 -0.02187304
0.06500315 -0.08687633 -0.09530467 0.009640633 0.048447456 0.040277995 -0.032891992 -0.08027685
0.049558416 -0.12198039 -0.10206393 -0.06453933 0.040823035 -0.013755561 -0.066589825 0.06459064
-0.023548998 0.04279775 0.19593851 -0.019881941 -0.035804097 0.17598699 0.2049643 0.14766169
0.0552051 0.07906407 0.06684557 -0.02944774 -0.13267483 -0.0051527154 -0.037793737 -0.029743962
-0.053378645 0.051342454 -0.069339715 -0.07992659 -0.17010935 -0.067457356 -0.17201924 -0.13409483
-0.086868644 0.044236243 -0.026427925 0.055426173 0.0039228657 0.0968417 0.06378422 0.11048731
0.07166579 -0.1287797 -0.05682085 0.07503574 -0.0006678891 0.16386634 0.101806395 0.1787326
0.2023956 0.13238262 0.008452753 0.027910365 0.093950756 0.18495926 0.23392601 0.34810075
0.24882457 0.09325894 -0.030317744 0.033478826 -0.06535968 -0.09495514 -0.07217608 -0.013370139
-0.013226537 0.010154583 -0.15479232 -0.14604992 -0.08664928 0.11417917 0.09879616 0.010250921
-0.0056089065 -0.03171514 -0.03411088 -0.047146957 -0.090186685 -0.017444707 -0.13484839 -0.06655166
-0.06604604 0.04819923 0.013965344 0.001371052 -0.017920949 -0.017759379 0.04320622 0.103900366
-0.00468303 -0.052916184 -0.110370316 0.013919507 0.18077454 0.2411284 0.1333491 -0.19077794
-0.012019841 0.13445103 0.07356449 0.11001451 -0.010100304 -0.042224936 -0.17721926 -0.1853458
-0.07894474 0.06367003 -0.009488701 0.058846433 0.0497431 0.18518446 0.12177174 0.07812227
0.08007274 -0.01789349 0.07097006 0.12839563 0.08781327 -0.053868372 -0.06398707 -0.06905242
0.17018999 0.1727228 0.12119134 -0.13822024 -0.06852888 0.062821075 -0.036297776 -0.07740085
-0.14329936 -0.087091975 -0.16449362 0.026600441 0.1150467 0.17667848 0.12811746 0.21782652
0.23998615 0.0027484344 -0.06311526 0.045844957 -0.14475 -0.080820136 0.020585382 -0.0881866
-0.049777966 -0.08751663 0.13476223 0.0105629815 0.10184575 0.058998678 0.091304965 0.018101092
0.04733225 0.06838236 -0.03392196 0.096463405 0.08980032 0.26307663 0.07899409 0.11413858
0.07242283 0.113890305 -0.06794127 -0.17520837 -0.22318867 -0.045842428 0.18016131 0.18221179
0.20653081 0.20579381 0.13388321 0.14480287 -0.046929512 -0.0012116716 -0.09076028 -0.04446493
0.055017438 0.22353785 0.20738661 0.07338826 -0.09799859 0.027726335 0.24461225 0.089287415

lstm.weight_hh_l0 f4 [512, 128]
00000000: 92a6 92bb b55c bd3d 9d87 49bd 8a68 3b3d
00000010: 96db 67bd 6bf3 44bd 5d36 043e bd83 82be
00000020: bf86 103e 94da 9fbd 6ac9 71bd 59d7 e03c
00000030: 6da2 be3d 29eb c23c 98c7 edbc 05ca 3ebb
00000040: d8e2 03bd 2011 3a3d 5bd5 bcbd baa2 ac3d
00000050: 067c d8bc a14b cd3d c098 93bd bb2f 573d
00000060: 3134 fabd 22eb f03c ee17 babd 8e7d 15bc
00000070: 71d2 8f3d c970 0e3d ad94 803d dc58 a53d
00000080: 9191 403d bcd5 b0bc 6ba0 d0bc 19fe 6b3d
00000090: f75b aabd 327c 9abd c475 963a 2f8e 67bd
000000a0: ced4 aebb 2b6b 40be 4894 463d 145e 2dbd
000000b0: dd0f 363e d4d9 143d 264c 843b 1123 aabc
000000c0: 5b65 18be aa17 debd 7a44 183e dce2 a23b
000000d0: af77 a43d eabf df3c 813f c0bc 5c79 0ebd
000000e0: 8c4d 12bd 9d77 7abe 188f 8f3c ca36 973d
000000f0: e705 35bd 5ef3 e5bd 60d9 c6bd eab5 93bd
00000100: d022 4abb 40ec fc3d 0fac 243c ec55 0a3e
00000110: b7bb 0d3d 3e23 ca3c 4f3c 02bc 5a2b 823d
00000120: 5c00 4cbd a426 6ebb ef4d 2c3d e22c 08bd
00000130: 9dab c5bc 6e04 ac3d 88b4 e2bd dfd9 393d
00000140: e330 813d 9afd 463d a548 093c d997 363d
00000150: 41f8 d83d eb70 5ebd 3f43 ec3d a8fb eabc
00000160: 196c ef3c afcf 7fbc 832f 633e 704d d43c
00000170: 51fa 97bc f0b3 22bd 8a31 53bd 7b6e b2bc
00000180: 3e80 ca3c cb8f 53bd e5f8 02be a66d b63d
00000190: b82d f53d c616 b8bd 9ff8 ba3c 7d44 563d
000001a0: a222 e63d e18c 233d 72ca 443d 9d0f 76be
000001b0: e577 48bd c597 b2bd a45e fdb8 53cd 7c3d
000001c0: 5c21 303d b8d6 43bd 2128 2b3d 1c58 b8bc
000001d0: 9aae dbbc 6074 5e3d af9b 9dbd 2ed5 39be
000001e0: d19a b23d ea19 c9bd ce31 0fbc 8604 5a3d
000001f0: 3d98 35be 026e af3d 72db 263d 5655 74bc
00000200: 0917 83bd bd93 3f3c ba68 fe3b 2851 83bd
00000210: 291e 72bd b629 49bd a7ca fe3d 1eb3 d4bd
00000220: 9155 8a3d 19a2 a3bc 50ad 61bd 4221 b5bd
00000230: ca23 89bc a7e4 673d a4d6 dfbd 3975 4e3d
00000240: 8249 92bd 38d6 16bd f10a 40bd 28be 753d
00000250: 80bb 06be 5df5 093e a910 ae3d 90d4 0ebe
00000260: 726b e13d 6702 103d 41e5 9fbc cb5d e6bd
00000270: cfe0 8a3d ed33 d8bd 9f95 3b3d f8f7 e2b8
00000280: f932 4dbd 98e4 483d b1a8 0ebd 6775 1d3d
00000290: dba5 03bd 5485 143c 8865 21bd f27c 813d
000002a0: 0fdd 023e a57b b6bd 9573 ec3b f615 963d
000002b0: bd7d 773c 3e12 c3bc ddf3 923d 6097 14be
000002c0: f73e d03d 27e0 763d 5793 363e e038 9dbb
000002d0: 6166 8c3d 4b6e 743c 26ff 6bbb 432c 06be
000002e0: 79ae b13b 72af b3bd 7ed2 433d 99fe ccbd
000002f0: ec2e 32bd 028c 27bc fccc 02be ed80 cf3d
00000300: e005 953c 36d0 083d 7bed 973d 7b22 be3c
00000310: 103f c739 615c 793d b8ad 363d 75bc d6bd
00000320: 42ae 453d 089b 253e 143c 483e 80e3 aabd
00000330: fa6f 533d 03cd 0c3e a787 1ebd f0f1 cf3c
00000340: 7f40 82bd 72fe 16be 00b2 22bd ee52 303c
00000350: 4c68 053e c5ea 88bd dfdf e7bd 7f7c 87bd
00000360: 7ca0 e4bb 7d5d 903d 6021 683d 4f41 a53c
00000370: 0cab 4e3d 6621 3ebc ade3 ed3d 169e 3f3d
00000380: 574d fc3d 2515 923d 3640 01bd b38e 8c3d
00000390: a58f bdbd bb63 a9bd 53d2 503d 0b58 d93d
000003a0: 5bac 0c3e e27d 1ebe 71ae 81bc 974d f4bc
000003b0: eb2a 94bc 0a32 7abc 23c5 cb3c 1e04 babc
000003c0: ae56 8f3d c933 01bd ff9d 3bbe fbc5 2f3e
000003d0: 677c 743e edc0 293d 5a5e 643d 740b 2abb
000003e0: ad65 8cbb 51fc c83d 034f e23d f3d6 14bd
000003f0: b534 9ebd 2d79 39bd 87ed 06be ded3 64bd
-0.004475423 0.09246198 -0.049201597 0.045753993 -0.056605898 -0.048083704 0.12911363 -0.25491133
0.14113902 -0.07805362 -0.059029974 0.027446436 0.09308324 0.023793774 -0.029025838 -0.0029112112
-0.032198757 0.045426488 -0.09220382 0.08429475 -0.026426326 0.10024191 -0.07206869 0.052535754
-0.12216986 0.029408995 -0.090865955 -0.009124173 0.070225604 0.03477553 0.06278358 0.08073589
0.047013823 -0.021586291 -0.025467118 0.057615373 -0.08318322 -0.075432196 0.0011479189 -0.05653208
-0.005335427 -0.18790881 0.048481256 -0.042326048 0.17779489 0.03634055 0.004037398 -0.020768674
-0.14882414 -0.10844357 0.14869872 0.0049708914 0.0803064 0.027313191 -0.023467781 -0.034783706
-0.035718486 -0.24459691 0.017524287 0.07383497 -0.044195082 -0.11228059 -0.0970943 -0.07212432
-0.0030843504 0.123497486 0.010050788 0.13509339 0.034602847 0.024675008 -0.007948949 0.06355925
-0.04980503 -0.003633895 0.04206651 -0.03324593 -0.024129683 0.083992824 -0.1106959 0.045373794
0.063081525 0.048581697 0.008379136 0.044578407 0.10594226 -0.054306906 0.11536264 -0.028684452
0.02922635 -0.0156134805 0.22186093 0.025915831 -0.018551977 -0.039722383 -0.051560916 -0.021781197
0.024719354 -0.051650804 -0.12790258 0.089076325 0.11971611 -0.08988719 0.02282363 0.05231141
0.112370744 0.039929274 0.04804463 -0.24029393 -0.048942465 -0.08720354 -0.00012081608 0.06171925
0.043000564 -0.047812194 0.041786317 -0.022502951 -0.026816655 0.054310203 -0.0769571 -0.18147728
0.08720935 -0.09819396 -0.008739902 0.05322697 -0.17733856 0.08565904 0.040736623 -0.014912924
-0.06400878 0.011692938 0.007763949 -0.06411964 -0.059110794 -0.049112044 0.124409966 -0.103857264
0.06754602 -0.019974755 -0.055096924 -0.08844234 -0.016740698 0.056614544 -0.10929611 0.05040476
-0.07142927 -0.03682539 -0.046885435 0.0599958 -0.13157463 0.13472505 0.084992714 -0.13948274
0.11006822 0.03515854 -0.019518496 -0.11248358 0.0678116 -0.10556779 0.045796987 -0.000108227076
-0.05009744 0.04904613 -0.034828845 0.03844204 -0.032140594 0.009064991 -0.03940347 0.063226596
0.1277964 -0.08910302 0.007215927 0.073284075 0.015105662 -0.02381241 0.071754195 -0.1451087
0.101682596 0.060272362 0.17829643 -0.00479804 0.06855465 0.014918874 -0.0036010235 -0.13102822
0.00542241 -0.08773698 0.047808163 -0.10009498 -0.04350178 -0.010226252 -0.12773508 0.101320125
0.018191278 0.03340169 0.07418343 0.023209801 0.00038003223 0.060879115 0.044599265 -0.10485164
0.04826189 0.16172421 0.19554168 -0.083441734 0.05162046 0.13750081 -0.038703587 0.02538392
-0.06359958 -0.147455 -0.039720535 0.0107619595 0.13028067 -0.06685404 -0.11321997 -0.066155426
-0.006977139 0.070490815 0.056672454 0.020172743 0.05045609 -0.0116046425 0.11615691 0.046781622
0.12319439 0.07132939 -0.031555377 0.06863155 -0.09255914 -0.08270975 0.05098183 0.10612496
0.13737623 -0.15477708 -0.01583025 -0.029822154 -0.018086871 -0.015270719 0.024874276 -0.022707041
0.06998955 -0.031543527 -0.1832199 0.17165367 0.2387558 0.041443754 0.055754043 -0.0025946768
-0.0042845816 0.098137505 0.110502265 -0.036337804 -0.07724897 -0.045281578 -0.13176547 -0.055866115

lstm.bias_ih_l0 f4 [512]
00000000: a684 173b ed31 883d 2660 7b3b 66e6 b3bc
00000010: 187d 653d 019a a1bd 9547 0b3d e013 1cba
00000020: b78e 9abc 367c 22bd 4709 9b3d d6c0 ab3d
00000030: 3d88 5c3d 62f9 803d 2755 b83d 932a 9cbd
00000040: 8018 ec3c 0193 b03d a774 673d b645 a5bc
00000050: 3aed 54bd f11a 70bc 9148 9bbd 6fd3 df3d
00000060: 24ca d33d 0386 d53c 8ab4 be3c f0e8 223d
00000070: 304a ba3d 13d9 e43c 005d d23c 1d7d bd3d
00000080: 7261 2bbd 8e8a 7ebc 3c66 813c ae79 643d
00000090: 4ed8 823d 50ee d9bd f7d1 393c dcf2 883d
000000a0: 1fac abbd 5a4f af3d 1b50 813d e339 28bc
000000b0: f3f1 873d 1e6c 1c3d 02be 283d c780 8bbd
000000c0: ec34 d63b 5e0f 72bc f6c4 71bd 91c0 b1bc
000000d0: 0a7c e7bd d1b5 093d a14a d8bd 8a44 733d
000000e0: 0ead 64bd 2864 d53c 6aa3 5fbc 5965 793c
000000f0: 4384 e93d 9e0d e33d efd5 e73c e9e5 823d
00000100: 6fc3 f03c 5283 723d 1d9f e43d 86ea 783d
00000110: 4821 7ebd c8ca f8bb 7c93 3b3d 9942 483d
00000120: 8cec 693d c01a 3ebc b0b2 003d 03dc 2a3e
00000130: 5285 e3bd 8363 61bd 25ea cbbb e94a c93c
00000140: 8ec5 5cbd e097 213d 957c 7fba 9ed8 dfbd
00000150: e30f e53c bc96 643c 4922 593d 7916 403d
00000160: 3f83 9bbc 3cc3 2d3c 0acb cf3c 48ca 5a3d
00000170: 3f98 02be 91b5 853c 1150 a2bd e0d2 0abd
00000180: 765a 913c d68f 7dbc e031 8b3c fc6e 58bc
00000190: b032 82bd 3085 88bc dd24 14be 4633 93bd
000001a0: 0d01 783c 287f c9bc 2cb7 3fbd c959 1d3e
000001b0: f4b8 a43d eb31 1abd be13 03be eac8 e33d
000001c0: ad58 a73d 7e21 ae3c 1c25 1a3d a1c1 073e
000001d0: 291b eb3d ddde 00bd 17a9 80bd 898d e73d
000001e0: 3ec3 9ebd 9f84 1f3c 7a95 a23d a3c8 a5bd
000001f0: b0be 16bd bff9 26bd c704 293e 73ed 883d
00000200: 8e3e 1c3d e235 4c3d c0b7 363e 23b2 133e
00000210: 279a 29bd d4e5 ae3c 92b1 133e 4cfd 593c
00000220: fa99 abbc 51f3 0a3e ee91 003c 536c 003d
00000230: 5c3d d2bc 6ab6 f23d 9e90 003d 7d4a d2bb
00000240: 5ad0 af3d c595 21bc c5fb a63d 0b79 383c
00000250: 9af0 093d 2b1d 483d 03e5 793d 82f9 943d
00000260: 7b88 073c a3d7 3a3e 7fc0 c23d a432 2ebd
00000270: c790 99bc b4fa a6bc 6e0e e73c f468 343e
00000280: 7b3b 20bd 1acd 1a3d 441c 2dbd 6c33 7b3d
00000290: 5eaf b73c 68c9 233d 14ff da3d 31aa b5bd
000002a0: c748 873c 05bb 4d3c 2336 8dbd eff4 5abd
000002b0: 335a 45bd 3502 8c3d eb46 473d bee0 353b
000002c0: 7481 b1bc c3fb 823d 57c8 75bc 352c 583d
000002d0: 60ab 7abd d84e 42bd f300 73bd 02d6 ed3d
000002e0: d437 8a3d 357e 55bd 0617 61bd 197c bc3d
000002f0: 819c 50bd 7f1a a93d 2d41 b2bd b739 1bbd
00000300: e2aa 9fbd fc4b d03c 526a d9bc c4a5 55bb
00000310: 501d d33a 5326 1b3e f88e 21bd 7f6f 063c
00000320: 1691 ed3d 3baa 32bd cb96 f73d 1c0a 94bc
00000330: bf68 5fbd 0bba 3d3d 5b97 243d 5a52 dd3d
00000340: 5e57 0f3c cb25 a8bd fb92 c93c 20b0 05bd
00000350: f587 c23d de71 7e3d f29a b4bd 6e55 3c3d
00000360: 1e55 053d 8d6c 763d 4864 a33d 731f da3d
00000370: aeb6 ec3d 799d 923d 112d a7bd ccd4 373c
00000380: 9c86 b33c 7458 fd3d c4dc 9dbd 7c21 67bd
00000390: 9841 013e bc9b 8d3c 876f 91bd b685 983d
000003a0: e113 113e add4 3fbc 8fb6 18bd 397d 043d
000003b0: 88c2 f83c 4278 b73d e151 e93c b1d2 2abc
000003c0: 3983 19bc dd61 96bb df8b 5ebd 7d1b 023c
000003d0: 5731 4e3d 0b5b 9fbd e66c 7c3d dd30 43bd
000003e0: f785 b9bc 2a0f bf3d 2463 ae3d 7c4f 97bc
000003f0: 1802 d33d 8092 bb3d 5926 dc3d 4fae 003e
0.0023119836 0.066501476 0.003835687 -0.021960448 0.0560275 -0.07890702 0.034003813 -0.00059538893
-0.01886688 -0.039669238 0.07570129 0.0838639 0.053840864 0.06297566 0.090006165 -0.07625308
0.028820276 0.08621789 0.056507733 -0.020174842 -0.05198405 -0.014654861 -0.075822 0.10929
0.1034129 0.026064878 0.023279447 0.039772928 0.090961814 0.02793554 0.025679111 0.09252379
-0.041840978 -0.015535964 0.01579582 0.055780105 0.06388913 -0.106411576 0.011341563 0.06686947
-0.08382439 0.08560057 0.06314107 -0.0102677075 0.06637945 0.038189046 0.04119683 -0.06811672
0.0065370705 -0.014774172 -0.059025727 -0.021698268 -0.113029554 0.03362066 -0.10561109 0.059391536
-0.0558291 0.026048735 -0.013649801 0.015221917 0.1140218 0.11086582 0.028300254 0.06391508
0.029390065 0.059207268 0.11163161 0.060770534 -0.06204346 -0.007592533 0.04579495 0.048891637
0.057110354 -0.011603057 0.03142041 0.1668549 -0.11109413 -0.055026542 -0.0062229806 0.024571853
-0.05389934 0.03945148 -0.0009746042 -0.10929988 0.027961677 0.0139519535 0.053011212 0.04689643
-0.018983481 0.0106056295 0.025365371 0.053415567 -0.1275339 0.01632193 -0.07925428 -0.033892512
0.01774333 -0.015476188 0.016991556 -0.0132100545 -0.06357324 -0.016665071 -0.14467187 -0.07187514
0.015136969 -0.024596766 -0.046805546 0.15366282 0.080430895 -0.03764526 -0.128005 0.11122306
0.081712104 0.021256205 0.037633047 0.13257457 0.1147979 -0.03146254 -0.06282251 0.113062926
-0.07752083 0.009736209 0.07938667 -0.08094909 -0.036802948 -0.04076552 0.16505729 0.06685915
0.038145594 0.049856074 0.17843533 0.14423423 -0.041406777 0.021349825 0.14423206 0.01330502
-0.020947445 0.1356938 0.007847292 0.031353306 -0.025664024 0.11851199 0.031387918 -0.006417571
0.08584662 -0.009862368 0.0815349 0.011259328 0.03367672 0.04885594 0.06100942 0.07274152
0.008272286 0.18246321 0.09509372 -0.042528763 -0.018745793 -0.020383216 0.028205123 0.17618161
-0.039119225 0.037793256 -0.042263284 0.061328337 0.022422489 0.039986998 0.106931835 -0.08870352
0.016514195 0.012556796 -0.068950914 -0.053456243 -0.048181724 0.068363585 0.048651617 0.0027752365
-0.021668173 0.06395676 -0.015001378 0.052776534 -0.061198592 -0.047438473 -0.059327077 0.116130844
0.067489296 -0.052122314 -0.054953597 0.09203357 -0.050930504 0.08257007 -0.087038375 -0.037896838
-0.07796265 0.025426857 -0.026539955 -0.0032600025 0.0016106758 0.15151338 -0.039442986 0.008205294
0.115999386 -0.043619376 0.12089308 -0.018071227 -0.054543253 0.046320003 0.040183406 0.10806723
0.008748857 -0.082103334 0.024606219 -0.03263867 0.09498588 0.06212031 -0.08818616 0.04597991
0.032551877 0.060162116 0.079781115 0.1065053 0.11558281 0.07158942 -0.081628926 0.011220168
0.021914773 0.12370387 -0.07708123 -0.056428418 0.12622678 0.017286174 -0.0710135 0.07447378
0.1416774 -0.011708421 -0.037283476 0.032345984 0.030366197 0.08958484 0.028481426 -0.010426209
-0.009369665 -0.004589303 -0.05433261 0.007941124 0.050340023 -0.07781037 0.06162729 -0.04765402
-0.022646887 0.09329064 0.08515003 -0.018470518 0.10303134 0.09158802 0.10749502 0.12566493

lstm.bias_hh_l0 f4 [512]
00000000: 9e1b 403d d68e 853c ef36 863d 8976 4dbd
00000010: 3af0 73bd 4e2c 653c ca77 a43c 7397 233e
00000020: d7d8 edbd 1381 d9bc 3c48 023e 63a6 ba3c
00000030: 9721 023e 099c 40bd 98f2 703d ea99 d13c
00000040: 11d8 35bd 69c3 533c 33ac 8fbc 0ffb 103d
00000050: 72d6 9e3d c7bb 4d3d a6bf a6bc c67e 8fbc
00000060: 7044 9b3d 2b87 023d 8f60 a6bd df4d bc3c
00000070: 659b af3d 2704 0e3d 61c6 1f3d e11a 4d3d
00000080: 1406 d33c e746 203d d345 c13d da98 cc3d
00000090: 54a6 b63d 5ddf 0fbd 6258 973c 89c9 9fbc
000000a0: 9bf7 febd 146e 193e bbab d4bb a0d7 0c3d
000000b0: ff03 9f3d 9740 ab3c 9c3c 0b3d dc7e bc3c
000000c0: db9e 343d 340a fb3c 495b 953b dbf1 3cbc
000000d0: 746c 5bbd 33d0 8b3d 7e37 1ebd 8ac3 363d
000000e0: 73da 043d 8b65 c03c 48e5 833d f3a4 f43c
000000f0: c233 f03d 5083 f73d 6b82 a63c cdd8 b8bc
00000100: 959b 98bd 00e1 04bc 5bf1 d03d fd00 ba3d
00000110: 2392 16bd 70af 98bc 3906 e53d ad9e eebb
00000120: a7f1 dfbc 2610 80bb 50c1 783d 65c0 183e
00000130: 8d07 f6bc d799 913d 9115 19bd 2504 4cbd
00000140: e08d 96bc 4695 f33d 378b 663d 287c ebbd
00000150: a8d8 40b9 8725 123d 60b9 8b3d 466d 903d
00000160: 0160 1f3d d08c 623d 84e3 423c 0478 ce3b
00000170: 80c0 45bd e270 53bd d186 94bd 46bb a33d
00000180: b3fd 313c 83ce a43d 49fb a53d 5b3b 84bb
00000190: eaa5 043d 6f87 0cbd 7b69 1dbd 81f7 f6bd
000001a0: f7f3 f13b 36b8 3c3d 6924 84bd ddda 453e
000001b0: d4c8 df3d f619 543d 9eb8 88bc a4e0 b73a
000001c0: b9d9 263d 73a9 e4bb b9a5 16bb 240c cf3d
000001d0: 242f 313c 87e3 5abd 9ed8 10bd e2c8 193c
000001e0: aa3c 963d 0f1a 88bc b3f6 573d 944a 853d
000001f0: 9875 863d 91d8 d43d b1f5 703d 637e 0a3e
00000200: b932 c43c 9cf2 9d3c f85c 013e 1195 d43d
00000210: f9b7 ad3c 9dfd af3d 6939 443e 2c35 2f39
00000220: df8e 303b 4d3f cb3d 6bfe ea3c 4835 b83d
00000230: bb9c a9ba bc8d 433c b143 893d b7f6 a73d
00000240: 2f49 943b 36f3 e03c dbab 7cbc 5d1c b9bd
00000250: 0224 9cbc 181c af3b ace1 003e 9fc7 ee3d
00000260: ff83 c63d 5b9c 5f3e 3709 f73d a3cd c2bc
00000270: 6774 76bc 916a e93d a306 963d 88db 5e3c
00000280: 4c58 293c e8a3 b8bc afd8 71bd 0ea3 63bd
00000290: 9120 883d 5749 ba3d 8acb d43c ffa4 95bd
000002a0: c432 c43b 6e72 11bd 0d09 b23d 0294 d9bd
000002b0: b6c9 083d dd7b d53c 10fc f43c 02f1 92bd
000002c0: d1b5 663d f924 bc3c 0308 4cbd a450 9b3a
000002d0: 1d51 763d 0533 aa3c c5a5 d9bd 66f5 ea3d
000002e0: 5b92 18bb 0d86 dfbd cd1a d63d fe1d df3b
000002f0: 1830 cfba 6983 3c3d 5cb8 283d e217 51bd
00000300: 979b ccbc 5238 c53d 9b6c 0bbd 5764 b93d
00000310: 99d3 3b3d 7112 1c3e b454 7a3d 4206 063d
00000320: 25e7 d23c 33b2 78bd 4273 113d e47c 21bd
00000330: 6969 603c c631 8b3d 0d92 683d c1c1 41bc
00000340: 4c0e 85bd a226 d43c c01b 86bd 9808 2e3d
00000350: 876a 15bd b50d b83c 556a 093d 78e1 e3ba
00000360: 7edf 713d 3adb eebb 471a b83c a476 463c
00000370: 7e0b 8a3d 1450 b13b 7c81 e73c c231 873c
00000380: 5a42 a23d c0b6 773d f727 63bd 34cb 39bd
00000390: b330 833d c186 b8bd 54b8 163d 9008 f33d
000003a0: 2e77 da3d 72be 97bd a043 953d 4cc7 9cbc
000003b0: 9c20 6ebc e4b6 9b3d 0dc6 82bd 1318 0a3d
000003c0: d573 2ebd 54aa 413a b9c8 abbd 7763 0bbe
000003d0: a3ce 56bc ad6d a43d 389b 433d 883f ecbd
000003e0: 9242 48bd 372f 4b3e 4c77 203e bd7c d63d
000003f0: 2762 5fbc 2094 b13c 444e bfbc 3848 bc3d
0.046901338 0.016303461 0.065534465 -0.050161872 -0.05955527 0.013987614 0.020076651 0.15975742
-0.116136245 -0.026550805 0.12722868 0.022784417 0.12708126 -0.047023807 0.058825105 0.025586087
-0.04439551 0.012925007 -0.017538166 0.035395678 0.07755746 0.050227907 -0.020355057 -0.017516505
0.07581413 0.031867187 -0.08123886 0.02298635 0.08574561 0.03467193 0.03900755 0.05007446
0.025759734 0.039130118 0.09437146 0.099900916 0.08918443 -0.035125125 0.018474761 -0.01950528
-0.12449571 0.14983398 -0.0064901984 0.034385324 0.07764434 0.020904822 0.03399335 0.02300971
0.04409681 0.030644514 0.004558001 -0.011532272 -0.053570226 0.0682682 -0.03862714 0.044620074
0.032434892 0.02348592 0.06440216 0.02986381 0.11728622 0.12085593 0.02032586 -0.022564316
-0.0745155 -0.008110285 0.10202285 0.0908222 -0.03676046 -0.018638343 0.111828275 -0.007282099
-0.027336909 -0.003908175 0.060731232 0.14917143 -0.030032897 0.07109421 -0.037374083 -0.04980864
-0.018378198 0.11893706 0.05628511 -0.1149829 -0.00018391258 0.03568032 0.06822467 0.07052092
0.038909916 0.05531007 0.011895064 0.006300928 -0.048279285 -0.051621325 -0.07252277 0.07994704
0.010863709 0.080472015 0.081045695 -0.004035396 0.03238479 -0.034308847 -0.038430672 -0.120589264
0.007383819 0.046074115 -0.06452257 0.19321771 0.10926977 0.05178257 -0.016689595 0.001402874
0.04073498 -0.0069782077 -0.0022986962 0.101097375 0.010814462 -0.053439643 -0.035362832 0.009386273
0.073357895 -0.016613988 0.052725505 0.06508365 0.06565398 0.10392869 0.05882806 0.13524775
0.023949968 0.019280724 0.12633121 0.10379995 0.021205889 0.08593295 0.19162525 0.00016709109
0.0026940627 0.09924183 0.028685769 0.089945376 -0.0012940386 0.011935648 0.06702364 0.08201354
0.0045253257 0.027459722 -0.015421833 -0.09038613 -0.019060139 0.005343925 0.12586087 0.116591685
0.09693145 0.21836989 0.120623045 -0.023779696 -0.015042401 0.11397279 0.073254846 0.013602145
0.010335993 -0.022539094 -0.059044536 -0.055575423 0.066468365 0.0909602 0.025975961 -0.07306861
0.005987497 -0.03550952 0.086931325 -0.106239334 0.03339549 0.02606004 0.029905349 -0.07174875
0.056325737 0.022966849 -0.049812328 0.0011849594 0.06013595 0.020776281 -0.10627321 0.11472587
-0.0023280594 -0.1091424 0.104543306 0.0068089953 -0.001580718 0.04602376 0.041191444 -0.051048167
-0.024976535 0.09629883 -0.03403912 0.090523414 0.045856092 0.1524141 0.061115935 0.03272081
0.025744984 -0.06071682 0.03551031 -0.039425746 0.013697007 0.06796603 0.05677991 -0.01182598
-0.064968675 0.025897328 -0.06548262 0.042488664 -0.036478546 0.022467474 0.03354867 -0.001738592
0.05905103 -0.0072893174 0.022473468 0.012113247 0.06740473 0.0054111574 0.028259985 0.016503219
0.07922812 0.06047702 -0.055458035 -0.045359805 0.06405773 -0.09010077 0.036796883 0.118668675
0.10667263 -0.074093714 0.07288289 -0.019138 -0.014534142 0.07603243 -0.063854314 0.033714365
-0.042590935 0.00073877466 -0.08387894 -0.13612162 -0.0131107895 0.080287315 0.04775545 -0.11535555
-0.04889161 0.1984223 0.15670508 0.10473011 -0.013634241 0.021677077 -0.02335275 0.09193462

lstm.weight_ih_l1 f4 [512, 128]
00000000: 412b 9d3c 5ad2 1fbe dad8 93be c636 0c3e
00000010: b10d 3fbe 57ba 2ebd 75f2 fabd 755a 7b3e
00000020: 06fe f5bd 3b65 09be 096e 18be 4034 5b3d
00000030: 7e98 403d 25ac 1ebe ee3e 9abb 42d8 0b3e
00000040: 4b03 973d 4b7c 303e 6775 733b 8da2 a83d
00000050: a3d2 00bd ab2a 61bd 857a 673c 56f6 523d
00000060: b5da 89bc e928 b2bd 9d5c 353e 2956 8d3e
00000070: c146 103d c254 12bd c44a 7ebc 7fc9 153e
00000080: da44 d1bd 29fc c63d 0a7d 873d 90e8 803d
00000090: 1d96 28bc fd33 35bd 2bab 26bd 1d49 2d3d
000000a0: 553f 6bbe a5c1 823d 6fc5 f0bd 67ca 8dbd
000000b0: 9c22 94bc 0dd7 e8bc ca25 263d ec7a cc3d
000000c0: 9247 4ebe 7ebe 19be 1b58 7bbd d5f7 82bd
000000d0: 6f3f 38be 710d 09bd da91 36bd fbea 283e
000000e0: da11 313e 41b5 473c 6ca2 6d3c 0312 e0bd
000000f0: 90a6 803d d532 afba dd89 093e c23e 283e
00000100: 5ac3 763d 4c31 143d faeb acbc 39aa b53d
00000110: 5333 1e3c f9c4 dabc 9bb8 bbbd 92e2 103e
00000120: 4a36 673d 6856 eebd 16b3 7cbd f6bc aa3d
00000130: ee1f 2cbd bf77 4a3a 6e9f 593e 7d5e 73bc
00000140: aa3b c1bb 0552 4e3e 08e5 c7bd 1d57 2ebd
00000150: 19c1 7dbe 2eea 093e 1928 e53c 562c a23d
00000160: 6f52 013d 6eb5 62bd 4069 d8bc 4bed 04be
00000170: 4fcf 0e3e 8f9d fbbd 4395 9a3d 6699 55bd
00000180: f433 babd 6271 8ebe f9f7 fbbd 2077 93bd
00000190: 45b2 4d3e e8e0 013d 4af0 93bd 4758 1fbe
000001a0: a736 31be 1a5c a8bd e640 abbd 0c14 a7bb
000001b0: 12da f33d fb80 e1bc 82ab 4fbd f478 903c
000001c0: 31c1 a0bc 1c94 bdbd 82c1 0c3d 93f1 9f3d
000001d0: 6461 d5bc 21a3 8dbd 99b2 073d bd44 3fbe
000001e0: 1244 0b3e af51 7cbd 4255 eebd 8476 6cbc
000001f0: 5182 9e3d 6a30 b3bd 7bfd 073e 5a90 b1bd
00000200: c913 353d a12d 3bbd dcea 36bd 2eef 1b3d
00000210: 6664 18be 73dd d6bd 4c47 17bd b349 edbc
00000220: 5fc0 033d d283 51bd 72c3 a23c 6688 3f3d
00000230: 4d82 643e 95ac bebd 17c1 cbbd daba 2a3d
00000240: 2683 9f3d 345c c83c 45e7 9b3d 206b 443e
00000250: c225 b8bc 8086 85bd 005c 483d dcff e2bd
00000260: f16a aabd 88f8 f63c b2bc cdbc 79d0 30bd
00000270: d7fa 5d3d 6193 82bd 99c4 ea3c 8fae 9c3d
00000280: 6642 c8bd fa81 883d b250 e7bd 1009 e13d
00000290: 6b34 d1bd b6f6 53bc 1a14 9839 3c93 993e
000002a0: 66a0 42bd 591e 2c3d 10ce 473e c8c9 a1bd
000002b0: 9a42 1dbd 7e7b e83a 6d09 cdbd ac7c 36be
000002c0: 0a0c 803c 480f 3bbd 5c31 143d bf90 9d3d
000002d0: 1c76 20be b96d 15bd 66aa 22bd 67f4 4ebd
000002e0: 2b90 a3bc e0f0 4e3c 4ab7 55be 1140 9a3b
000002f0: 980e 05be e423 593c c11a 423e 8aff eabd
00000300: d1a6 23be 0c16 82bd fa8f f1bd 00a6 503c
00000310: a3a8 abbd f02f 9dbd 61ee 28bd 6355 f63d
00000320: 4fa3 45bd 8388 15be 09ae 41bd 2e88 05bd
00000330: bf11 63bd b0c9 89bc 7176 2e3d d12f 083c
00000340: 973a bb3d 6569 0fbd 480d 8a3d b381 ca3c
00000350: 2152 b93c 256f 613d 9199 b0bd b4f9 e1bd
00000360: 0e34 723d 6f87 4a3d cdeb c33d fbcf b1bc
00000370: 5e80 473c 7dab b6bd 7854 e33c dcde d0bd
00000380: 659a 4abd 488e f13c 9326 c8bd 1326 1b3e
00000390: 0fd9 b63d 3cb3 6fbe f130 2b3d 5443 133d
000003a0: 3795 a4bd 643e 793e 22d4 2b3d ad7f 923d
000003b0: 6e81 acbb 6af3 b3bd 09ac b4bd 3569 9f3d
000003c0: db54 97bb 491d c6bc 47a1 07bd 8920 883e
000003d0: ab8f 74be 46d5 d43c 2c1e 2dbb 2327 d1bd
000003e0: c433 d83d 06ee cf3c ceef 45bc 7a93 04be
000003f0: cec5 183d 05ea 0cbe a2fc c4bd 6995 c03d
0.019185664 -0.15607587 -0.28876382 0.1369277 -0.18657567 -0.042658176 -0.12253276 0.24546225
-0.12011342 -0.13417523 -0.14885725 0.053516626 0.047020428 -0.15495355 -0.004707209 0.13656715
0.07373675 0.17234914 0.0037148835 0.08234129 -0.03145088 -0.054972332 0.014128332 0.051504456
-0.01682792 -0.08699209 0.1771111 0.27604797 0.035223726 -0.035725363 -0.015520755 0.14627646
-0.102182105 0.097160645 0.06615646 0.06294358 -0.010289696 -0.044239033 -0.040690582 0.042306054
-0.22973378 0.06384591 -0.117564075 -0.06923371 -0.01808291 -0.028422857 0.040563382 0.09984383
-0.2014449 -0.15014073 -0.06136332 -0.063949265 -0.17992948 -0.033460084 -0.04457269 0.16495888
0.17291966 0.01218921 0.014504056 -0.109409355 0.06281769 -0.001336659 0.13431497 0.1643019
0.060244896 0.036179826 -0.021108616 0.08870358 0.009655791 -0.026705252 -0.0916607 0.1414893
0.05644826 -0.116375744 -0.061694227 0.08336823 -0.042022638 0.0007723532 0.21252224 -0.014854071
-0.005897005 0.20148475 -0.09760481 -0.042563546 -0.24780692 0.13468239 0.027973222 0.07918613
0.031572755 -0.055348806 -0.026417375 -0.12981145 0.1394627 -0.12285911 0.07548001 -0.052148245
-0.090919405 -0.2782088 -0.123031564 -0.07200456 0.20087536 0.031708628 -0.07223566 -0.15561019
-0.17306004 -0.08220692 -0.08361988 -0.0050988253 0.11906828 -0.027527323 -0.050700672 0.0176358
-0.01962337 -0.09256765 0.03436423 0.078097485 -0.026047416 -0.0691588 0.03312931 -0.18678565
0.13600186 -0.061601337 -0.116373554 -0.014432553 0.077397 -0.087494686 0.13280289 -0.08670111
0.04420832 -0.045697812 -0.044657573 0.038069896 -0.14882049 -0.10491457 -0.03693323 -0.028965807
0.03216588 -0.051151104 0.019868586 0.04676094 0.22315331 -0.09310261 -0.09948938 0.0416821
0.077886865 0.024458028 0.076124705 0.1918149 -0.022478942 -0.065197945 0.048915863 -0.110839576
-0.08321179 0.030147806 -0.025114391 -0.043167565 0.054194298 -0.063757665 0.028658198 0.07650482
-0.097782895 0.06665416 -0.11294688 0.10988057 -0.10215076 -0.012937238 0.00029006676 0.29995143
-0.04751625 0.04202113 0.195122 -0.07899815 -0.038393594 0.0017736999 -0.100115635 -0.17820996
0.01563074 -0.04566887 0.036179885 0.07693624 -0.15670055 -0.036481593 -0.039713286 -0.05052605
-0.019966206 0.012630671 -0.208707 0.0047073443 -0.12993848 0.013253186 0.18955518 -0.114745215
-0.15981604 -0.06351861 -0.117950395 0.01273489 -0.08381774 -0.07675159 -0.04124296 0.12028005
-0.048251446 -0.14602856 -0.047285113 -0.032600574 -0.055436846 -0.016819805 0.042593423 0.008312182
0.091420345 -0.03501262 0.067408144 0.024720049 0.02262217 0.055037636 -0.086230405 -0.11033955
0.059131674 0.049445566 0.0956646 -0.021705618 0.012176601 -0.089194275 0.027750239 -0.10198757
-0.04946365 0.02948679 -0.097729824 0.15151243 0.089281194 -0.23408216 0.04179472 0.03595288
-0.08036273 0.24340206 0.041950352 0.071532585 -0.0052644527 -0.08786662 -0.088218756 0.077837385
-0.00461827 -0.024183886 -0.03311279 0.26587322 -0.2388293 0.025980603 -0.002641569 -0.10212543
0.105567485 0.025382053 -0.0120811 -0.12946883 0.037298016 -0.13761146 -0.096184984 0.09403498

lstm.weight_hh_l1 f4 [512, 128]
00000000: 71ef d63c fe91 d83d 19a5 25be 30b1 153e
00000010: f1d7 963d e2a6 693d accd 24be 3a52 97bd
00000020: 6b83 02be 4600 c6bd b667 453c 2aa7 e5ba
00000030: a361 aabd 47fa b73d 5cbc 5b3e 5d24 77bd
00000040: c8d1 42bb fc92 283d c997 253e 39b7 36be
00000050: 8ffe 843d c811 babd 9393 993b f54f 26bd
00000060: adcb 1abe 64bb 4e3d 63cc 1ebd f1bc 56be
00000070: 759c 1dbd 7b90 80be fde8 853e 63dd 66bd
00000080: a269 a6bd d35b a53d 5f71 48be 111a 9a3d
00000090: d4ee 563b 31f1 48be 536e 31be f55c 0dbe
000000a0: e817 84bd e447 6d3d ef17 1b3e 6142 12be
000000b0: a13e 893d 2c5f 07be c0a7 b43d f34c 0ebe
000000c0: fa8e b43d f045 f63d 794d a13d f0de 213e
000000d0: 6251 a13d 259d 34be a6b9 383d 6474 88be
000000e0: ec23 23bd 2ea7 da3d 385b 39bd 4fdf f63d
000000f0: 038b 8c3e b38c e3bd f5d4 443d 4e44 153e
00000100: a5a6 83bd 6d55 d63c 1498 08be 4c76 efbd
00000110: ed50 89bd 447a bc3d 45ce df3d 6172 073e
00000120: 1451 893d 828e 1b3a d8dc d73d fef6 3ebe
00000130: 70d8 173e 36c0 a9bd 037e 543d e404 c23d
00000140: 86aa c0bd b95c 173e 656a 52bd f2ba 02bd
00000150: 2c0c 9fbd 0105 6ebc 5268 723c 9816 1abd
00000160: 8b7c c93d e6d2 8cbd c871 ae3d 2668 78bd
00000170: 6358 a9bc 0f9b 57bd 8f99 2dbe d654 acbc
00000180: aec6 35be a03e 0ebd e51d ab3d b153 da3d
00000190: 3014 2a3e c5f2 903d 1ab1 e4bd 2426 f7bd
000001a0: 46bb 243e 0b1b e83d 9443 3cbd 71b4 e83d
000001b0: db66 fcbd 4dfc af3d 5eeb 09bc c6ab 43bd
000001c0: 22ee 163e 5a03 fbbd 0a2f f0bd 642e 56bd
000001d0: fce1 d13d 1781 53bd d945 32bd e301 f43a
000001e0: 0657 5c3a 6d86 743d fc18 143e bda2 08be
000001f0: 980a bb3c e5a7 6c3e 6ecb 3dbd fd72 053e
00000200: cd3f fd3c de11 d73d 88f2 23bd 8c87 383e
00000210: a535 0abd 6943 dd3a 1ff2 7abb 5c88 883e
00000220: 2eb0 9f3d 868a 43bc b8ca 3b3e a1b8 95bd
00000230: a7a1 a33d 7a83 3e3d eeb5 a4bb 2a46 2fbc
00000240: bb75 d33c d9e5 23bc c39c 393d ca01 153e
00000250: 7bff d0bd f516 82bc 1d20 f43d 63df e9bd
00000260: 5ad3 cd3c 6792 2bbc 2287 893d 4ad5 023d
00000270: f8e7 9f3d c2b7 ef3d 83b9 fbbd aeae 39bc
00000280: cdc9 b63b 56b3 fa3d 20a2 95bd cbeb d13d
00000290: 62fc 51bd c3ec 083c 4f83 af3d 11aa d6bd
000002a0: e12e 5b3d d148 83bd 0db5 5dbd 515c bc3d
000002b0: 6ef4 32bc a8c3 87bc 1a93 1a3c e08f 97bd
000002c0: 5c04 55bd 83be 6b3d 5f37 e9bd b8b1 d93d
000002d0: be7a 063d f396 573d 88f1 763d d984 d5bc
000002e0: 383f 7d3d 83c8 953d a22b 3e3e a4c3 823d
000002f0: 9e63 5b3d 5eb0 903d bba7 78bd 5321 813d
00000300: 8002 ffbc dff8 893d 6733 aebc 651f d23d
00000310: 2228 7e3d 817a 4a3d 442e a73d 24e9 933d
00000320: 7f97 d53a 8a90 ad3c 1d0f 853c 4aeb 30bd
00000330: e9b6 0f3d a675 fc3c 0ce1 22bd d17b 2cbb
00000340: 3541 7abe 10a2 f13b 10a7 2fbd d262 c7bd
00000350: 973f f03c abab 1d3e fba2 efb9 2470 4dbd
00000360: 4487 98bd 4abb 34bd 8897 3ebd 91ac a13d
00000370: 9465 203d 029d 24be c7f8 683d cf1f a3bd
00000380: 3219 253d c21e aabc aa1d 3f3d c09d 853d
00000390: 3eb8 133e 1eec 383c 9016 943d a163 18bd
000003a0: a60b 4d3e f6e3 d8bd 9dfd f33c 9bc2 a03a
000003b0: 31b5 5dbe c65b 01bd 5018 bcbd c0d6 80bd
000003c0: afd7 f93c 1e5b 97bd 38f6 0dbe 2b3a 85bd
000003d0: 6fca e9bb c817 b33d 2d6a 7e3d 6429 f1bd
000003e0: 0ba0 08be 03d1 463d 0120 a3bd 33ed 07be
000003f0: 477f e43d 1343 0fbe 1bed 823d 04f4 923d
0.026237221 0.10574721 -0.16176261 0.14618373 0.07365406 0.057043917 -0.16094083 -0.0738873
-0.12745444 -0.09668021 0.012048652 -0.0017521132 -0.08319404 0.089832835 0.21458572 -0.060337413
-0.002972709 0.0411558 0.16171183 -0.17843331 0.06493866 -0.09085423 0.0046867817 -0.040603597
-0.15116759 0.05047168 -0.038769137 -0.20970513 -0.038479287 -0.2511023 0.26154318 -0.056363475
-0.081256166 0.08074155 -0.19574498 0.07524503 0.0032796161 -0.19623257 -0.17327242 -0.13804992
-0.06449872 0.05792989 0.15145849 -0.14283134 0.06701399 -0.13219899 0.08821058 -0.13896541
0.08816333 0.12025058 0.07876105 0.158077 0.07876851 -0.17638071 0.045098923 -0.266513
-0.03982918 0.10676418 -0.04525301 0.120543115 0.27449808 -0.111108206 0.048054654 0.14576837
-0.06428269 0.026163781 -0.13339263 -0.11692485 -0.067048885 0.09203008 0.10928015 0.13227226
0.067049176 0.0005934016 0.105401695 -0.18648908 0.14828658 -0.082886145 0.051877987 0.09473589
-0.09407525 0.14781465 -0.051370997 -0.031916566 -0.077659935 -0.01452756 0.01479538 -0.037619203
0.09838208 -0.06876163 0.08517796 -0.0606462 -0.020672029 -0.05263811 -0.16953109 -0.021036547
-0.17751572 -0.034727693 0.08355311 0.10660494 0.16609263 0.070775546 -0.11166592 -0.120678216
0.16087064 0.11333283 -0.045962885 0.113625415 -0.123243056 0.085930444 -0.008417932 -0.047771238
0.14739278 -0.12256499 -0.11727722 -0.052290335 0.10248181 -0.05163678 -0.043523643 0.0018616285
0.00084053015 0.05969851 0.14462656 -0.1334333 0.0228322 0.23110922 -0.046336584 0.13032146
0.030914212 0.10501455 -0.040026218 0.18020457 -0.033742566 0.0016881052 -0.0038291288 0.26666534
0.077972755 -0.011934882 0.1833905 -0.07310606 0.07989817 0.046512105 -0.0050265705 -0.010697881
0.025812974 -0.01000353 0.045315515 0.14551464 -0.10204979 -0.015880087 0.119201876 -0.11419561
0.025125194 -0.010471917 0.06715228 0.03194169 0.078079164 0.11704971 -0.12291243 -0.011333151
0.0055782557 0.12241237 -0.073063135 0.10250052 -0.05126608 0.00835723 0.08569967 -0.10481656
0.053511504 -0.06410373 -0.05412774 0.091972955 -0.010922534 -0.016572788 0.009434486 -0.07400489
-0.05200611 0.057554733 -0.11387514 0.106296 0.0328319 0.05263419 0.060288936 -0.026064323
0.06182787 0.07313635 0.18571332 0.06384972 0.0535618 0.07064889 -0.060706835 0.06305184
-0.031129122 0.067369215 -0.021264745 0.10259894 0.062049992 0.049433235 0.08163121 0.072222024
0.001629576 0.021187086 0.016242558 -0.04319314 0.035086546 0.030817818 -0.039765403 -0.0026318918
-0.24438937 0.0073740557 -0.042883933 -0.09735645 0.029327197 0.15397517 -0.00045707062 -0.050155774
-0.07447675 -0.044123925 -0.04653123 0.078942426 0.039159372 -0.16075519 0.056877878 -0.079650514
0.04030723 -0.02076662 0.04665915 0.06524229 0.14425752 0.0112867635 0.07230866 -0.03720439
0.20023975 -0.10590355 0.029784018 0.0012265028 -0.2165115 -0.031581663 -0.09184325 -0.0629096
0.030498354 -0.07390426 -0.13863456 -0.06505235 -0.0071347277 0.0874477 0.062112976 -0.11775473
-0.13342302 0.048539173 -0.07965089 -0.13274078 0.11157089 -0.1399043 0.063928805 0.071754485

lstm.bias_ih_l1 f4 [512]
00000000: cf24 2b3e 9c62 e23d d069 a23d c05e 3ebd
00000010: 46a9 663d c590 213d 15a5 7a3c 610f 543d
00000020: 3c4e c63c 72d7 513d 1f14 15bd c592 90bc
00000030: a4ae ffbc d60b d9bd a928 03be e1a6 563e
00000040: 9b0c f13d e93d 06bd 9b64 d23d 8b36 18bd
00000050: 2cf7 6d3d 1bf7 7b3d 3b86 e13a 9974 dc3d
00000060: 54c5 2bba e97c 6cbd 7bc0 9cbd 7101 013e
00000070: ba28 03bd dea5 e0bc 7745 123e eb0d 0b3d
00000080: cd14 a33c 3021 3fbc 992a ab3c 3e8a 133c
00000090: ac43 a2bc 9723 0ebc 1d31 e33d 31a3 4f3d
000000a0: 96c4 043e 5743 f83d 7c1a 393c c55e b93d
000000b0: 373f c13d 5feb d2ba 45f5 843d 780c 25b9
000000c0: 705c dfbd f598 04be 110f 0abc 7a84 c0bd
000000d0: 386f 5b39 3697 37bc 4265 2cbd b032 c83d
000000e0: 3406 dd3c 560f 963d b8d3 62bd 90c9 8d3d
000000f0: 4ba5 aa3d 53a3 93bc cefb cf3c 9b2a cebc
00000100: 9c2e 7e3d 482d b4bb baab 143e 7a22 283e
00000110: 38a9 753d 01d2 4eba 1a5d 983d b81c 50bd
00000120: 1d76 a33d 0a43 0e3e a65b cb3d 7a84 dc3d
00000130: 37ef 933d 3668 b53b ed57 fd3d 7b8d d63c
00000140: 768e 26bc 7d94 173e 3244 343e a220 15bd
00000150: ac0f 933d 4634 e7bc 3ce1 0ebd 34f7 34bb
00000160: 143f 3e3d 19db 0f3d ec50 a3bc 82dd 7d37
00000170: 5dd5 013d 3db0 8dbb 5684 e7bd 31dd 85bc
00000180: 35ba dbbc 9bc1 b83d 297d c83d d0b3 703e
00000190: ed0a 973c 9667 bdbb e207 ac3b c3ea 843d
000001a0: 188c 143d 62a1 cc3b 0ca3 543d f61e d63c
000001b0: 4c9e 623d 560a 72bc a434 193e 93b1 e03c
000001c0: 5aa6 023e 75ca 6bbd 485c 0f3e 5398 e23c
000001d0: 9f86 0e3e 9fe1 863d 0d83 78bd 7589 87bc
000001e0: a6bf 96bc c98f 1abd 96ae 353c 4766 013e
000001f0: 5f47 cb3d 98a4 a13d aa82 0a3e 6e7d 373e
00000200: b037 d5bc bb05 623d 5ce4 383e d6af 0c3e
00000210: 73fd 163e 62ea 9bbc 500e fe3d 3b99 d93c
00000220: 09b8 273e a0b6 663d 2fda 973d b8f0 303d
00000230: 9b68 883d 2d42 283e 851c 103e 0ab4 423e
00000240: ccba f43c 8ade 753c 838b bb3d 488e 1c3e
00000250: 3b0c 8fbd ef85 193d eb3c 443e 571c 3b3e
00000260: 3c28 143e df02 563d eb99 c03d ab82 e33d
00000270: 57dc 623e a4d5 d03d ddad 003e 3573 1c3e
00000280: c7a3 023e c0fc 363e c0fd fa3d 81ec 0e3e
00000290: 52c6 d03d 6d0f 0c3e 1e6c 0d3d 3259 413e
000002a0: afa6 673d e461 513e df0d 933d 0925 ea3c
000002b0: 5edd 083e e253 df3d ed89 1e3e daf9 fe3a
000002c0: a580 033e 64e8 a13d 55ef b83d 6957 073d
000002d0: b378 df3d 709c 903c ecab 0b3e b32f 223c
000002e0: 4514 773d 16cf be3d 63ca 4b3e 5dce 8f3e
000002f0: 3718 f33c 6b98 273e 9299 233d 9945 783d
00000300: eb71 2a3c c234 c03d b4eb 1fbc 2419 873d
00000310: 3a46 083e de31 f93d d0e4 2f3e ecb3 043e
00000320: 2737 803d f0c9 df3d 02a5 653e ad5d a93c
00000330: d5ff be3d dfc8 de3d 9b65 9e3b bee2 fab9
00000340: 3efc 9d3d 8a19 3f3e 3e01 3f3e 88f2 023e
00000350: add0 e73d 8567 e23d a69e 093e 0ad8 b53d
00000360: abe5 1c3e 1739 4d3c 07a9 513c f05b b23d
00000370: 89d4 6e3d cffc cc3d 1cc5 453e c824 653e
00000380: 45d1 6c3c 7942 c03d f8bb d73c a176 973d
00000390: f7e8 b83d 38c6 cb3c e89f 87bb c199 273d
000003a0: 6959 0c3e 7082 b03d ad89 5e3c d7c4 fd3d
000003b0: 0f31 4d3e bb09 e63d cb54 2d3e 5f4d ee3d
000003c0: f17d 0c3e bd0a 783d 8eab b83d 6b27 c13d
000003d0: 95b3 cabc 3ea7 903d f29c 3f3e 070e b63c
000003e0: 0681 213d 6f97 ff3d 2c98 883d 16e6 b33d
000003f0: 909f 003d a5cd bb3c 3df9 853c ec2d 263d
0.1671326 0.110539645 0.079303384 -0.04647708 0.056313775 0.039444704 0.015298148 0.05177248
0.024207227 0.051230855 -0.036396142 -0.01764811 -0.031211205 -0.10597961 -0.1280848 0.20962097
0.117699824 -0.032773886 0.10273095 -0.03716139 0.05809705 0.061514955 0.0017206141 0.10764427
-0.00065525365 -0.05773631 -0.076539 0.12598206 -0.03202126 -0.027422842 0.14284311 0.03394882
0.01990738 -0.011665627 0.020894336 0.0090051275 -0.01980766 -0.0086754775 0.11093352 0.05069274
0.12965617 0.12122219 0.011297818 0.09051279 0.094358854 -0.0016091875 0.06492094 -0.00015740271
-0.10906303 -0.12948973 -0.008426444 -0.09400268 0.000209269 -0.011205485 -0.042088754 0.09775293
0.026980497 0.07327144 -0.055377692 0.069232106 0.083323084 -0.018022215 0.025388625 -0.0251668
0.06205617 -0.005498562 0.14518633 0.16419402 0.059975833 -0.00078895694 0.07439633 -0.05080864
0.07981513 0.13892761 0.0992959 0.107674554 0.07223361 0.0055361046 0.12370286 0.02619051
-0.010165801 0.14802738 0.1760414 -0.036408074 0.071807235 -0.028223168 -0.03488277 -0.0027613165
0.046446875 0.035121057 -0.019936047 1.5131549e-05 0.03169762 -0.0043239878 -0.11304538 -0.016340824
-0.026822189 0.09021302 0.097894974 0.23506093 0.018437827 -0.0057801707 0.005249963 0.0649009
0.036266416 0.0062448243 0.051913306 0.02613781 0.055326745 -0.014772972 0.14961487 0.027428424
0.1275877 -0.057566125 0.14000046 0.027660524 0.13918541 0.065860026 -0.060671855 -0.016545037
-0.018401932 -0.03773478 0.011088988 0.12636672 0.09925722 0.07892722 0.13526407 0.17918941
-0.02602753 0.055181246 0.18055862 0.13738951 0.1474512 -0.01903266 0.12405074 0.026562324
0.16378798 0.05632651 0.07414662 0.043198317 0.06660577 0.16431494 0.1407338 0.19013992
0.029874228 0.015006671 0.09157469 0.15288651 -0.06984755 0.037481245 0.19163863 0.1827253
0.14468473 0.05224883 0.094043575 0.11108907 0.22154365 0.10196999 0.12566324 0.15278323
0.12757789 0.17869854 0.1225543 0.13957407 0.101940766 0.1367776 0.034526937 0.18881682
0.056555446 0.20447499 0.0718038 0.028582113 0.13365695 0.10904671 0.15482302 0.0019453124
0.12842043 0.07905653 0.09030024 0.033042345 0.109116934 0.01765272 0.13639802 0.009899068
0.060322065 0.09316842 0.19901423 0.2808713 0.029674632 0.16366737 0.039941378 0.06061325
0.010403137 0.09385063 -0.009760786 0.06596592 0.1330804 0.121677145 0.17177129 0.1295926
0.062605195 0.109271884 0.22426227 0.02067455 0.0932614 0.10878157 0.0048338897 -0.00047852652
0.07714127 0.18662086 0.18652818 0.12787831 0.113190986 0.11054901 0.13439426 0.08879097
0.15321986 0.012525818 0.012796647 0.08708942 0.058308158 0.10009157 0.19313473 0.22377312
0.014454191 0.09387679 0.026334748 0.073956735 0.090288095 0.024874792 -0.0041389354 0.040918116
0.13705982 0.08618629 0.013582629 0.1239106 0.20038246 0.11232325 0.16926877 0.11635851
0.13719918 0.060557116 0.090170965 0.094313465 -0.024743835 0.07063149 0.18712214 0.022223486
0.039429687 0.124800555 0.066696495 0.0878412 0.03140217 0.022925207 0.016354198 0.04057114

lstm.bias_hh_l1 f4 [512]
00000000: babb e53d 7a98 3b3d 3663 70bd b2e8 88bd
00000010: 4b51 033e 28d5 533d f6f2 ac3d d41b f23d
00000020: a766 bf3d 5f61 9abb 05fe f83c c80a 803c
00000030: 5d6b 8f3d 75eb 73bc 6ff7 a5bd 1d67 a03d
00000040: cbf3 413d 05cb 043e 8969 4d3c 42fb f8bb
00000050: a19a 9c3d 5660 d13d 17f1 413d 110d 5e3d
00000060: 73f2 d6bc f115 5abd 42f0 d7bd 1e86 343d
00000070: f2a4 babc 35e2 df3c c49b a43d afe7 763c
00000080: d4c2 743d 4a5a 4ebd 5b3d 0b3e f001 823d
00000090: 83a0 a63d 79fb 113a af14 b23c 8f1d 463c
000000a0: 1635 f13d aba2 023e 3f4f 443d e7a5 bb3d
000000b0: eb57 c83d ebb8 d6bd a92d 0e3e de26 903c
000000c0: 3768 85bc 3f5d 97bd 222d f53d 3070 1fbd
000000d0: 9246 60bd 79ff e63d 0edd bdbd 4335 213e
000000e0: 67ab 863d 3475 903d 1a55 0fbe 6801 423c
000000f0: 8ac0 043d 4a8c f23d 6bad d839 86f9 acbd
00000100: 6fe2 153e e843 08bd 88cd 0e3e 0c2b 1b3e
00000110: 0e87 77bc 2490 0c3e 71ef bfbc c0ea 86bd
00000120: 18d6 a33c 1a93 293e 8c66 083e a7e3 183d
00000130: 6419 ea3c d542 be3d 35be 033d 3127 39bc
00000140: 7228 603d fcb0 dc3d 23c0 0b3e c492 f7bc
00000150: f551 63bb a781 3cbc 8370 123d 1603 bcbd
00000160: 5e6f ad3d df02 a3bd 8f06 fbbc 04b5 233c
00000170: d115 c93d fede fd3c e577 18be 8d62 ab3c
00000180: e3ac 673b 57a8 883d 4a44 2fbd a17c 503e
00000190: 7624 77bd 6584 8f3d 9d26 9c3c 5458 b0bc
000001a0: 3656 613c 0db8 1bbd ceb3 073e b3e6 c0bd
000001b0: c35f 573d 8911 4d3d 8ff3 863d d0aa d83d
000001c0: a10d 5a3d 1ecb 8d3c 2f2c e53b dbe5 ae3d
000001d0: 1d1c 323d 8fed d23a 62bb 6dbd d834 183d
000001e0: b484 11bd 0d3e 3ebd 178f 91bd 44bb c23d
000001f0: a2b2 153c 16c3 8d3d 6585 633d eacf b73d
00000200: 6070 debc de35 e23d 97e2 ff3d de83 153e
00000210: 67f1 0a3d 945c e03c f86b 3a3e 5004 233d
00000220: 42b4 0c3d a3cb fc3d e769 5e3d d1c5 1e3d
00000230: 6b3b dd3d 56a9 e73d 3727 773d 0984 5e3d
00000240: 7ef6 b83d 0acf 4ebd a0e2 f53c 8980 083e
00000250: ee06 c4bb 63d0 3d3d a98a 843e 1276 f43d
00000260: 11d1 a93d 18b7 8d3c 961f cb3d 6a2d 913d
00000270: 2763 0b3e 0f01 b33d d0e9 e83d 4fb7 0b3e
00000280: a140 213e 4729 b63c 3770 3f3e f832 d43d
00000290: 5941 f83d 01c2 653e b4a3 943d 6145 573e
000002a0: 3b08 163e 7bb8 403e f4c2 2a3e b391 203e
000002b0: 724b 273e 1591 0a3e 4dad 1b3e ed04 7cbb
000002c0: 73ed 113e bd17 413d 7aca c93d d361 283c
000002d0: 2d18 1d3e 6531 923d 752e 9f3d 52cd 7a3c
000002e0: 9cab 193e 0b9f 8f3a a00f 5d3e 62f8 5d3e
000002f0: ac55 e9bb a4d5 073d 38df de3c 8f52 a13d
00000300: cecd bf3d fbe9 f43d 2288 1a3d 5360 0f3d
00000310: ba92 ad3d 005d ae3d 05ea 3b3d d58b 723e
00000320: 2295 c9bc 9846 1a3e 9d68 343e ee56 f6bb
00000330: cbe5 423b 6ac0 3e3d 02b5 543d 872a 2f3d
00000340: 564b 123d 01b1 013e c352 863d a8c8 b23d
00000350: cd48 313e 6677 333e d6f5 463b 4e7b 123e
00000360: 2e5c 723d 06ba b43d 6603 d03d 24fb 973d
00000370: 0820 7c3d acf4 563d 3c1f 983d de5c 003e
00000380: d2e4 0a3e ce27 c7bb f718 0a3e 6df1 eb3d
00000390: 7ce2 123e e164 8c3c ec54 743d af94 333e
000003a0: 1217 623e b8d6 473e 0a9a 863d 8f26 193e
000003b0: 0dd1 5e3e 159b b43d 7b76 df3d 1847 ca3d
000003c0: 85d5 d83d f3f2 fa3d a520 183e 72b5 1f3e
000003d0: 93a6 153e 919b 7bbc d2df 243e 575d 5f3b
000003e0: c241 063e 96be 603e 4f12 c63d 6ab8 303e
000003f0: b594 f63c 4de0 823d 017d 103e c7c1 383e
0.112174466 0.04579971 -0.058688365 -0.06685008 0.1282398 0.051716954 0.084447786 0.11821714
0.09345751 -0.0047113146 0.030394563 0.01563014 0.070029 -0.01488768 -0.08103835 0.07832167
0.04735164 0.12968071 0.012537369 -0.0075983116 0.076466806 0.10223453 0.04734906 0.05421168
-0.026238656 -0.05324358 -0.105438724 0.044073217 -0.02278373 0.027329544 0.080375224 0.015069886
0.059756115 -0.050379075 0.13597624 0.06348026 0.08136084 0.00055687834 0.021738378 0.012092008
0.117777035 0.12757365 0.047927137 0.09162503 0.09782394 -0.10484489 0.13884605 0.017596658
-0.016285045 -0.07390832 0.11971499 -0.03892535 -0.0547548 0.11279196 -0.092706785 0.15742974
0.06575661 0.07053605 -0.13997307 0.011841156 0.032410182 0.11843164 0.00041327937 -0.0844603
0.14637159 -0.033267885 0.13945591 0.1515314 -0.015107883 0.1372686 -0.023429604 -0.06587744
0.019999549 0.16560021 0.13320369 0.03732648 0.02857656 0.09290091 0.032163817 -0.011300848
0.05472607 0.107759446 0.13647513 -0.03022135 -0.0034686301 -0.011505521 0.03575183 -0.09180276
0.08468507 -0.07959532 -0.030642776 0.009991888 0.09818614 0.03099012 -0.14889486 0.020921016
0.0035350851 0.06672733 -0.042789735 0.20360042 -0.060337506 0.07007674 0.019061381 -0.021526493
0.013753464 -0.03801732 0.13252184 -0.094190024 0.05258156 0.05006555 0.06589424 0.10579455
0.053235654 0.017308768 0.0069937925 0.08539935 0.043483842 0.0016092526 -0.05804003 0.03715977
-0.035526946 -0.046445895 -0.0710737 0.09508374 0.009136828 0.06921975 0.055547137 0.08975203
-0.027153194 0.110454306 0.124943905 0.14601085 0.033921625 0.027387895 0.1820525 0.039799035
0.034351595 0.12343528 0.054300215 0.03876287 0.10802349 0.11311595 0.060340133 0.054325137
0.0903139 -0.050490417 0.03001529 0.13330282 -0.0059822714 0.04634131 0.2588704 0.119365826
0.082918294 0.01729922 0.09918134 0.0708874 0.13612042 0.08740436 0.11372721 0.13644145
0.1574731 0.02223648 0.1869515 0.10361284 0.12121839 0.22437288 0.072577864 0.2102256
0.14651577 0.18820374 0.16675931 0.1568058 0.16337374 0.13531907 0.15202828 -0.0038455084
0.14250736 0.04714178 0.098530725 0.010277229 0.15341254 0.071383275 0.07772533 0.015307741
0.1500687 0.0010957433 0.21587992 0.21676782 -0.0071208086 0.033162728 0.027206048 0.07877075
0.09365426 0.11958691 0.037727483 0.03500397 0.084752515 0.08513832 0.045877475 0.23686154
-0.024607245 0.15065992 0.17618032 -0.007517687 0.0029739018 0.04657022 0.051930435 0.042765167
0.035716377 0.12665178 0.06558754 0.087296784 0.17312928 0.17526016 0.0030358932 0.1430485
0.05916994 0.08824544 0.10156898 0.07420948 0.061553985 0.05247943 0.074278325 0.12535426
0.1356385 -0.006077743 0.13486086 0.11520658 0.1434421 0.017137947 0.0596513 0.17537187
0.22079113 0.19515502 0.06572349 0.14956115 0.21759434 0.08818642 0.1091127 0.09876841
0.105876006 0.1225337 0.14856203 0.1559656 0.14614324 -0.015356914 0.16101006 0.0034082734
0.13111022 0.21947703 0.09671461 0.17257848 0.030100206 0.06390438 0.14110185 0.1804267
